…
%|          | 0/479 [00:00<?, ?it/s]","application/vnd.jupyter.widget-view+json":{"version_major":2,"version_minor":0,"model_id":"b32ea0009f04498298ecfd8e523ecab1"}},"metadata":{}},{"output_type":"display_data","data":{"text/plain":"generation_config.json: 0.00B [00:00, ?B/s]","application/vnd.jupyter.widget-view+json":{"version_major":2,"version_minor":0,"model_id":"e135f58455eb4902af0c51c0f74afff9"}},"metadata":{}},{"execution_count":13,"output_type":"execute_result","data":{"text/plain":"WhisperForConditionalGeneration(\n  (model): WhisperModel(\n    (encoder): WhisperEncoder(\n      (conv1): Conv1d(80, 768, kernel_size=(3,), stride=(1,), padding=(1,))\n      (conv2): Conv1d(768, 768, kernel_size=(3,), stride=(2,), padding=(1,))\n      (embed_positions): Embedding(1500, 768)\n      (layers): ModuleList(\n        (0-11): 12 x WhisperEncoderLayer(\n          (self_attn): WhisperAttention(\n            (k_proj): Linear(in_features=768, out_features=768, bias=False)\n            (v_proj): Linear(in_features=768, out_features=768, bias=True)\n            (q_proj): Linear(in_features=768, out_features=768, bias=True)\n            (out_proj): Linear(in_features=768, out_features=768, bias=True)\n          )\n          (self_attn_layer_norm): LayerNorm((768,), eps=1e-05, elementwise_affine=True)\n          (activation_fn): GELUActivation()\n          (fc1): Linear(in_features=768, out_features=3072, bias=True)\n          (fc2): Linear(in_features=3072, out_features=768, bias=True)\n          (final_layer_norm): LayerNorm((768,), eps=1e-05, elementwise_affine=True)\n        )\n      )\n      (layer_norm): LayerNorm((768,), eps=1e-05, elementwise_affine=True)\n    )\n    (decoder): WhisperDecoder(\n      (embed_tokens): Embedding(51865, 768, padding_idx=50257)\n      (embed_positions): WhisperPositionalEmbedding(448, 768)\n      (layers): ModuleList(\n        (0-11): 12 x WhisperDecoderLayer(\n          (self_attn): WhisperAttention(\n            (k_proj): Linear(in_features=768, out_features=768, bias=False)\n            (v_proj): Linear(in_features=768, out_features=768, bias=True)\n            (q_proj): Linear(in_features=768, out_features=768, bias=True)\n            (out_proj): Linear(in_features=768, out_features=768, bias=True)\n          )\n          (activation_fn): GELUActivation()\n          (self_attn_layer_norm): LayerNorm((768,), eps=1e-05, elementwise_affine=True)\n          (encoder_attn): WhisperAttention(\n            (k_proj): Linear(in_features=768, out_features=768, bias=False)\n            (v_proj): Linear(in_features=768, out_features=768, bias=True)\n            (q_proj): Linear(in_features=768, out_features=768, bias=True)\n            (out_proj): Linear(in_features=768, out_features=768, bias=True)\n          )\n          (encoder_attn_layer_norm): LayerNorm((768,), eps=1e-05, elementwise_affine=True)\n          (fc1): Linear(in_features=768, out_features=3072, bias=True)\n          (fc2): Linear(in_features=3072, out_features=768, bias=True)\n          (final_layer_norm): LayerNorm((768,), eps=1e-05, elementwise_affine=True)\n        )\n      )\n      (layer_norm): LayerNorm((768,), eps=1e-05, elementwise_affine=True)\n    )\n  )\n  (proj_out): Linear(in_features=768, out_features=51865, bias=False)\n)"},"metadata":{}}],"execution_count":13},{"cell_type":"code","source":"model.generation_config.forced_decoder_ids = None\nmodel.generation_config.language = None\nmodel.generation_config.task = \"transcribe\"","metadata":{"trusted":true},"outputs":[],"execution_count":null},{"cell_type":"code","source":"print(\"Tokenizer Language :\", processor.to
…
